…
*****************************************************************************************************************************************
***************************************************2022-05-06 10:21:40.867762*******************************************************
Data-sets: wine
Data-sets size: 178,13
Number of EPOC: 400
*********Model Summary***********Model: "sequential"
_________________________________________________________________
 Layer (type)                Output Shape              Param #   
=================================================================
 dense (Dense)               (None, 256)               3584      
                                                                 
 batch_normalization (BatchN  (None, 256)              1024      
 ormalization)                                                   
                                                                 
 dropout (Dropout)           (None, 256)               0         
                                                                 
 dense_1 (Dense)             (None, 256)               65792     
                                                                 
 batch_normalization_1 (Batc  (None, 256)              1024      
 hNormalization)                                                 
                                                                 
 dropout_1 (Dropout)         (None, 256)               0         
                                                                 
 dense_2 (Dense)             (None, 512)               131584    
                                                                 
 batch_normalization_2 (Batc  (None, 512)              2048      
 hNormalization)                                                 
                                                                 
 dropout_2 (Dropout)         (None, 512)               0         
                                                                 
 dense_3 (Dense)             (None, 3)                 1539      
                                                                 
=================================================================
Total params: 206,595
Trainable params: 204,547
Non-trainable params: 2,048
_________________________________________________________________
Deep Dense model Accuracy is : 100.00 
The accuracy for ADABoost model is: %91.66666666666666
number of Augmented data:552
*********Model Summary***********Model: "sequential_1"
_________________________________________________________________
 Layer (type)                Output Shape              Param #   
=================================================================
 dense_4 (Dense)             (None, 256)               3584      
                                                                 
 batch_normalization_3 (Batc  (None, 256)              1024      
 hNormalization)                                                 
                                                                 
 dropout_3 (Dropout)         (None, 256)               0         
                                                                 
 dense_5 (Dense)             (None, 256)               65792     
                                                                 
 batch_normalization_4 (Batc  (None, 256)              1024      
 hNormalization)                                                 
                                                                 
 dropout_4 (Dropout)         (None, 256)               0         
                                                                 
 dense_6 (Dense)             (None, 512)               131584    
                                                                 
 batch_normalization_5 (Batc  (None, 512)              2048      
 hNormalization)                                                 
                                                                 
 dropout_5 (Dropout)         (None, 512)               0         
                                                                 
 dense_7 (Dense)             (None, 3)                 1539      
                                                                 
=================================================================
Total params: 206,595
Trainable params: 204,547
Non-trainable params: 2,048
_________________________________________________________________
Deep Dense model Accuracy is : 100.00 
The accuracy for ADABoost model is: %94.44444444444444
************************************************************************************************************************************
***************************************************2022-05-07 22:06:13.011729*******************************************************
Data-sets: breast_cancer
Data-sets size: 569,30
Number of EPOC: 10
********************Model Summary******************
Model: "sequential"
_________________________________________________________________
 Layer (type)                Output Shape              Param #   
=================================================================
 dense (Dense)               (None, 256)               7936      
                                                                 
 batch_normalization (BatchN  (None, 256)              1024      
 ormalization)                                                   
                                                                 
 dropout (Dropout)           (None, 256)               0         
                                                                 
 dense_1 (Dense)             (None, 256)               65792     
                                                                 
 batch_normalization_1 (Batc  (None, 256)              1024      
 hNormalization)                                                 
                                                                 
 dropout_1 (Dropout)         (None, 256)               0         
                                                                 
 dense_2 (Dense)             (None, 512)               131584    
                                                                 
 batch_normalization_2 (Batc  (None, 512)              2048      
 hNormalization)                                                 
                                                                 
 dropout_2 (Dropout)         (None, 512)               0         
                                                                 
 dense_3 (Dense)             (None, 2)                 1026      
                                                                 
=================================================================
Total params: 210,434
Trainable params: 208,386
Non-trainable params: 2,048
_________________________________________________________________
Deep Dense model Accuracy is : 92.98 
The accuracy for ADABoost model is: %97.36842105263158
***************************************************2022-05-07 22:11:50.464729*******************************************************
Data-sets: breast_cancer
Data-sets size: 569,30
Number of EPOC: 10
********************Model Summary******************
Model: "sequential"
_________________________________________________________________
 Layer (type)                Output Shape              Param #   
=================================================================
 dense (Dense)               (None, 256)               7936      
                                                                 
 batch_normalization (BatchN  (None, 256)              1024      
 ormalization)                                                   
                                                                 
 dropout (Dropout)           (None, 256)               0         
                                                                 
 dense_1 (Dense)             (None, 256)               65792     
                                                                 
 batch_normalization_1 (Batc  (None, 256)              1024      
 hNormalization)                                                 
                                                                 
 dropout_1 (Dropout)         (None, 256)               0         
                                                                 
 dense_2 (Dense)             (None, 512)               131584    
                                                                 
 batch_normalization_2 (Batc  (None, 512)              2048      
 hNormalization)                                                 
                                                                 
 dropout_2 (Dropout)         (None, 512)               0         
                                                                 
 dense_3 (Dense)             (None, 2)                 1026      
                                                                 
=================================================================
Total params: 210,434
Trainable params: 208,386
Non-trainable params: 2,048
_________________________________________________________________
Deep Dense model Accuracy is : 84.21 
The accuracy for ADABoost model is: %97.36842105263158
***************************************************2022-05-07 22:18:47.273729*******************************************************
Data-sets: breast_cancer
Data-sets size: 569,30
Number of EPOC: 100
********************Model Summary******************
Model: "sequential"
_________________________________________________________________
 Layer (type)                Output Shape              Param #   
=================================================================
 dense (Dense)               (None, 256)               7936      
                                                                 
 batch_normalization (BatchN  (None, 256)              1024      
 ormalization)                                                   
                                                                 
 dropout (Dropout)           (None, 256)               0         
                                                                 
 dense_1 (Dense)             (None, 256)               65792     
                                                                 
 batch_normalization_1 (Batc  (None, 256)              1024      
 hNormalization)                                                 
                                                                 
 dropout_1 (Dropout)         (None, 256)               0         
                                                                 
 dense_2 (Dense)             (None, 512)               131584    
                                                                 
 batch_normalization_2 (Batc  (None, 512)              2048      
 hNormalization)                                                 
                                                                 
 dropout_2 (Dropout)         (None, 512)               0         
                                                                 
 dense_3 (Dense)             (None, 2)                 1026      
                                                                 
=================================================================
Total params: 210,434
Trainable params: 208,386
Non-trainable params: 2,048
_________________________________________________________________
Deep Dense model Accuracy is : 96.49 
The accuracy for ADABoost model is: %97.36842105263158
***************************************************2022-05-07 22:28:08.698729*******************************************************
Data-sets: breast_cancer
Data-sets size: 569,30
Number of EPOC: 150
********************Model Summary******************
Model: "sequential"
_________________________________________________________________
 Layer (type)                Output Shape              Param #   
=================================================================
 dense (Dense)               (None, 256)               7936      
                                                                 
 batch_normalization (BatchN  (None, 256)              1024      
 ormalization)                                                   
                                                                 
 dropout (Dropout)           (None, 256)               0         
                                                                 
 dense_1 (Dense)             (None, 256)               65792     
                                                                 
 batch_normalization_1 (Batc  (None, 256)              1024      
 hNormalization)                                                 
                                                                 
 dropout_1 (Dropout)         (None, 256)               0         
                                                                 
 dense_2 (Dense)             (None, 512)               131584    
                                                                 
 batch_normalization_2 (Batc  (None, 512)              2048      
 hNormalization)                                                 
                                                                 
 dropout_2 (Dropout)         (None, 512)               0         
                                                                 
 dense_3 (Dense)             (None, 2)                 1026      
                                                                 
=================================================================
Total params: 210,434
Trainable params: 208,386
Non-trainable params: 2,048
_________________________________________________________________
Deep Dense model Accuracy is : 97.37 
The accuracy for ADABoost model is: %97.36842105263158
***************************************************2022-05-07 22:36:00.940729*******************************************************
Data-sets: breast_cancer
Data-sets size: 569,30
Number of EPOC: 400
********************Model Summary******************
Model: "sequential"
_________________________________________________________________
 Layer (type)                Output Shape              Param #   
=================================================================
 dense (Dense)               (None, 256)               7936      
                                                                 
 batch_normalization (BatchN  (None, 256)              1024      
 ormalization)                                                   
                                                                 
 dropout (Dropout)           (None, 256)               0         
                                                                 
 dense_1 (Dense)             (None, 256)               65792     
                                                                 
 batch_normalization_1 (Batc  (None, 256)              1024      
 hNormalization)                                                 
                                                                 
 dropout_1 (Dropout)         (None, 256)               0         
                                                                 
 dense_2 (Dense)             (None, 512)               131584    
                                                                 
 batch_normalization_2 (Batc  (None, 512)              2048      
 hNormalization)                                                 
                                                                 
 dropout_2 (Dropout)         (None, 512)               0         
                                                                 
 dense_3 (Dense)             (None, 2)                 1026      
                                                                 
=================================================================
Total params: 210,434
Trainable params: 208,386
Non-trainable params: 2,048
_________________________________________________________________
Deep Dense model Accuracy is : 94.74 
The accuracy for ADABoost model is: %97.36842105263158
***************************************************2022-05-07 22:46:57.116729*******************************************************
Data-sets: Abalone.csv
Data-sets size: 4176,8
Number of EPOC: 10
***************************************************2022-05-07 22:48:43.540730*******************************************************
Data-sets: Abalone.csv
Data-sets size: 4176,8
Number of EPOC: 10
********************Model Summary******************
Model: "sequential"
_________________________________________________________________
 Layer (type)                Output Shape              Param #   
=================================================================
 dense (Dense)               (None, 256)               2304      
                                                                 
 batch_normalization (BatchN  (None, 256)              1024      
 ormalization)                                                   
                                                                 
 dropout (Dropout)           (None, 256)               0         
                                                                 
 dense_1 (Dense)             (None, 256)               65792     
                                                                 
 batch_normalization_1 (Batc  (None, 256)              1024      
 hNormalization)                                                 
                                                                 
 dropout_1 (Dropout)         (None, 256)               0         
                                                                 
 dense_2 (Dense)             (None, 512)               131584    
                                                                 
 batch_normalization_2 (Batc  (None, 512)              2048      
 hNormalization)                                                 
                                                                 
 dropout_2 (Dropout)         (None, 512)               0         
                                                                 
 dense_3 (Dense)             (None, 3)                 1539      
                                                                 
=================================================================
Total params: 205,315
Trainable params: 203,267
Non-trainable params: 2,048
_________________________________________________________________
Deep Dense model Accuracy is : 55.38 
The accuracy for ADABoost model is: %56.33971291866029
number of Augmented data:4324
********************Model Summary******************
Model: "sequential_1"
_________________________________________________________________
 Layer (type)                Output Shape              Param #   
=================================================================
 dense_4 (Dense)             (None, 256)               2304      
                                                                 
 batch_normalization_3 (Batc  (None, 256)              1024      
 hNormalization)                                                 
                                                                 
 dropout_3 (Dropout)         (None, 256)               0         
                                                                 
 dense_5 (Dense)             (None, 256)               65792     
                                                                 
 batch_normalization_4 (Batc  (None, 256)              1024      
 hNormalization)                                                 
                                                                 
 dropout_4 (Dropout)         (None, 256)               0         
                                                                 
 dense_6 (Dense)             (None, 512)               131584    
                                                                 
 batch_normalization_5 (Batc  (None, 512)              2048      
 hNormalization)                                                 
                                                                 
 dropout_5 (Dropout)         (None, 512)               0         
                                                                 
 dense_7 (Dense)             (None, 3)                 1539      
                                                                 
=================================================================
Total params: 205,315
Trainable params: 203,267
Non-trainable params: 2,048
_________________________________________________________________
Deep Dense model Accuracy is : 52.51 
The accuracy for ADABoost model is: %56.10047846889952
************************************************************************************************************************************
…
************************************************************************************************************************************
***************************************************2022-05-08 02:30:20.997327*******************************************************
Data-sets: glass_csv.csv
Data-sets size: 214,9
Number of EPOC: 400
********************Model Summary******************
Model: "sequential"
_________________________________________________________________
 Layer (type)                Output Shape              Param #   
=================================================================
 dense (Dense)               (None, 256)               2560      
                                                                 
 batch_normalization (BatchN  (None, 256)              1024      
 ormalization)                                                   
                                                                 
 dropout (Dropout)           (None, 256)               0         
                                                                 
 dense_1 (Dense)             (None, 256)               65792     
                                                                 
 batch_normalization_1 (Batc  (None, 256)              1024      
 hNormalization)                                                 
                                                                 
 dropout_1 (Dropout)         (None, 256)               0         
                                                                 
 dense_2 (Dense)             (None, 512)               131584    
                                                                 
 batch_normalization_2 (Batc  (None, 512)              2048      
 hNormalization)                                                 
                                                                 
 dropout_2 (Dropout)         (None, 512)               0         
                                                                 
 dense_3 (Dense)             (None, 6)                 3078      
                                                                 
=================================================================
Total params: 207,110
Trainable params: 205,062
Non-trainable params: 2,048
_________________________________________________________________
Deep Dense model Accuracy is : 74.42 
The accuracy for ADABoost model is: %32.55813953488372
***************************************************2022-05-08 02:37:29.734326*******************************************************
Data-sets: glass_csv.csv
Data-sets size: 214,9
Number of EPOC: 400
********************Model Summary******************
Model: "sequential"
_________________________________________________________________
 Layer (type)                Output Shape              Param #   
=================================================================
 dense (Dense)               (None, 256)               2560      
                                                                 
 batch_normalization (BatchN  (None, 256)              1024      
 ormalization)                                                   
                                                                 
 dropout (Dropout)           (None, 256)               0         
                                                                 
 dense_1 (Dense)             (None, 256)               65792     
                                                                 
 batch_normalization_1 (Batc  (None, 256)              1024      
 hNormalization)                                                 
                                                                 
 dropout_1 (Dropout)         (None, 256)               0         
                                                                 
 dense_2 (Dense)             (None, 512)               131584    
                                                                 
 batch_normalization_2 (Batc  (None, 512)              2048      
 hNormalization)                                                 
                                                                 
 dropout_2 (Dropout)         (None, 512)               0         
                                                                 
 dense_3 (Dense)             (None, 6)                 3078      
                                                                 
=================================================================
Total params: 207,110
Trainable params: 205,062
Non-trainable params: 2,048
_________________________________________________________________
Deep Dense model Accuracy is : 65.12 
The accuracy for ADABoost model is: %32.55813953488372
***************************************************2022-05-08 02:43:21.213844*******************************************************
Data-sets: glass_csv.csv
Data-sets size: 214,9
Number of EPOC: 200
********************Model Summary******************
Model: "sequential"
_________________________________________________________________
 Layer (type)                Output Shape              Param #   
=================================================================
 dense (Dense)               (None, 256)               2560      
                                                                 
 batch_normalization (BatchN  (None, 256)              1024      
 ormalization)                                                   
                                                                 
 dropout (Dropout)           (None, 256)               0         
                                                                 
 dense_1 (Dense)             (None, 256)               65792     
                                                                 
 batch_normalization_1 (Batc  (None, 256)              1024      
 hNormalization)                                                 
                                                                 
 dropout_1 (Dropout)         (None, 256)               0         
                                                                 
 dense_2 (Dense)             (None, 512)               131584    
                                                                 
 batch_normalization_2 (Batc  (None, 512)              2048      
 hNormalization)                                                 
                                                                 
 dropout_2 (Dropout)         (None, 512)               0         
                                                                 
 dense_3 (Dense)             (None, 6)                 3078      
                                                                 
=================================================================
Total params: 207,110
Trainable params: 205,062
Non-trainable params: 2,048
_________________________________________________________________
Deep Dense model Accuracy is : 76.74 
The accuracy for ADABoost model is: %32.55813953488372
***************************************************2022-05-08 02:47:22.144845*******************************************************
Data-sets: glass_csv.csv
Data-sets size: 214,9
Number of EPOC: 150
********************Model Summary******************
Model: "sequential"
_________________________________________________________________
 Layer (type)                Output Shape              Param #   
=================================================================
 dense (Dense)               (None, 256)               2560      
                                                                 
 batch_normalization (BatchN  (None, 256)              1024      
 ormalization)                                                   
                                                                 
 dropout (Dropout)           (None, 256)               0         
                                                                 
 dense_1 (Dense)             (None, 256)               65792     
                                                                 
 batch_normalization_1 (Batc  (None, 256)              1024      
 hNormalization)                                                 
                                                                 
 dropout_1 (Dropout)         (None, 256)               0         
                                                                 
 dense_2 (Dense)             (None, 512)               131584    
                                                                 
 batch_normalization_2 (Batc  (None, 512)              2048      
 hNormalization)                                                 
                                                                 
 dropout_2 (Dropout)         (None, 512)               0         
                                                                 
 dense_3 (Dense)             (None, 6)                 3078      
                                                                 
=================================================================
Total params: 207,110
Trainable params: 205,062
Non-trainable params: 2,048
_________________________________________________________________
Deep Dense model Accuracy is : 69.77 
The accuracy for ADABoost model is: %32.55813953488372
***************************************************2022-05-08 02:50:21.220845*******************************************************
Data-sets: glass_csv.csv
Data-sets size: 214,9
Number of EPOC: 100
********************Model Summary******************
Model: "sequential"
_________________________________________________________________
 Layer (type)                Output Shape              Param #   
=================================================================
 dense (Dense)               (None, 256)               2560      
                                                                 
 batch_normalization (BatchN  (None, 256)              1024      
 ormalization)                                                   
                                                                 
 dropout (Dropout)           (None, 256)               0         
                                                                 
 dense_1 (Dense)             (None, 256)               65792     
                                                                 
 batch_normalization_1 (Batc  (None, 256)              1024      
 hNormalization)                                                 
                                                                 
 dropout_1 (Dropout)         (None, 256)               0         
                                                                 
 dense_2 (Dense)             (None, 512)               131584    
                                                                 
 batch_normalization_2 (Batc  (None, 512)              2048      
 hNormalization)                                                 
                                                                 
 dropout_2 (Dropout)         (None, 512)               0         
                                                                 
 dense_3 (Dense)             (None, 6)                 3078      
                                                                 
=================================================================
Total params: 207,110
Trainable params: 205,062
Non-trainable params: 2,048
_________________________________________________________________
Deep Dense model Accuracy is : 62.79 
The accuracy for ADABoost model is: %32.55813953488372
***************************************************2022-05-08 02:52:40.789845*******************************************************
Data-sets: glass_csv.csv
Data-sets size: 214,9
Number of EPOC: 50
********************Model Summary******************
Model: "sequential"
_________________________________________________________________
 Layer (type)                Output Shape              Param #   
=================================================================
 dense (Dense)               (None, 256)               2560      
                                                                 
 batch_normalization (BatchN  (None, 256)              1024      
 ormalization)                                                   
                                                                 
 dropout (Dropout)           (None, 256)               0         
                                                                 
 dense_1 (Dense)             (None, 256)               65792     
                                                                 
 batch_normalization_1 (Batc  (None, 256)              1024      
 hNormalization)                                                 
                                                                 
 dropout_1 (Dropout)         (None, 256)               0         
                                                                 
 dense_2 (Dense)             (None, 512)               131584    
                                                                 
 batch_normalization_2 (Batc  (None, 512)              2048      
 hNormalization)                                                 
                                                                 
 dropout_2 (Dropout)         (None, 512)               0         
                                                                 
 dense_3 (Dense)             (None, 6)                 3078      
                                                                 
=================================================================
Total params: 207,110
Trainable params: 205,062
Non-trainable params: 2,048
_________________________________________________________________
Deep Dense model Accuracy is : 32.56 
The accuracy for ADABoost model is: %32.55813953488372
***************************************************2022-05-08 04:39:41.534599*******************************************************
Data-sets: glass_csv.csv
Data-sets size: 214,9
Number of EPOC: 10
********************Model Summary******************
Model: "sequential"
_________________________________________________________________
 Layer (type)                Output Shape              Param #   
=================================================================
 dense (Dense)               (None, 256)               2560      
                                                                 
 batch_normalization (BatchN  (None, 256)              1024      
 ormalization)                                                   
                                                                 
 dropout (Dropout)           (None, 256)               0         
                                                                 
 dense_1 (Dense)             (None, 256)               65792     
                                                                 
 batch_normalization_1 (Batc  (None, 256)              1024      
 hNormalization)                                                 
                                                                 
 dropout_1 (Dropout)         (None, 256)               0         
                                                                 
 dense_2 (Dense)             (None, 512)               131584    
                                                                 
 batch_normalization_2 (Batc  (None, 512)              2048      
 hNormalization)                                                 
                                                                 
 dropout_2 (Dropout)         (None, 512)               0         
                                                                 
 dense_3 (Dense)             (None, 6)                 3078      
                                                                 
=================================================================
Total params: 207,110
Trainable params: 205,062
Non-trainable params: 2,048
_________________________________________________________________
Deep Dense model Accuracy is : 41.86 
The accuracy for ADABoost model is: %32.55813953488372
number of Augmented data:603
********************Model Summary******************
Model: "sequential_1"
_________________________________________________________________
 Layer (type)                Output Shape              Param #   
=================================================================
 dense_4 (Dense)             (None, 256)               2560      
                                                                 
 batch_normalization_3 (Batc  (None, 256)              1024      
 hNormalization)                                                 
                                                                 
 dropout_3 (Dropout)         (None, 256)               0         
                                                                 
 dense_5 (Dense)             (None, 256)               65792     
                                                                 
 batch_normalization_4 (Batc  (None, 256)              1024      
 hNormalization)                                                 
                                                                 
 dropout_4 (Dropout)         (None, 256)               0         
                                                                 
 dense_6 (Dense)             (None, 512)               131584    
                                                                 
 batch_normalization_5 (Batc  (None, 512)              2048      
 hNormalization)                                                 
                                                                 
 dropout_5 (Dropout)         (None, 512)               0         
                                                                 
 dense_7 (Dense)             (None, 6)                 3078      
                                                                 
=================================================================
Total params: 207,110
Trainable params: 205,062
Non-trainable params: 2,048
_________________________________________________________________
Deep Dense model Accuracy is : 55.81 
The accuracy for ADABoost model is: %37.2093023255814
************************************************************************************************************************************
***************************************************2022-05-08 04:43:48.559599*******************************************************
Data-sets: glass_csv.csv
Data-sets size: 214,9
Number of EPOC: 10
********************Model Summary******************
Model: "sequential"
_________________________________________________________________
 Layer (type)                Output Shape              Param #   
=================================================================
 dense (Dense)               (None, 256)               2560      
                                                                 
 batch_normalization (BatchN  (None, 256)              1024      
 ormalization)                                                   
                                                                 
 dropout (Dropout)           (None, 256)               0         
                                                                 
 dense_1 (Dense)             (None, 256)               65792     
                                                                 
 batch_normalization_1 (Batc  (None, 256)              1024      
 hNormalization)                                                 
                                                                 
 dropout_1 (Dropout)         (None, 256)               0         
                                                                 
 dense_2 (Dense)             (None, 512)               131584    
                                                                 
 batch_normalization_2 (Batc  (None, 512)              2048      
 hNormalization)                                                 
                                                                 
 dropout_2 (Dropout)         (None, 512)               0         
                                                                 
 dense_3 (Dense)             (None, 6)                 3078      
                                                                 
=================================================================
Total params: 207,110
Trainable params: 205,062
Non-trainable params: 2,048
_________________________________________________________________
Deep Dense model Accuracy is : 25.58 
The accuracy for ADABoost model is: %32.55813953488372
number of Augmented data:607
********************Model Summary******************
Model: "sequential_1"
_________________________________________________________________
 Layer (type)                Output Shape              Param #   
=================================================================
 dense_4 (Dense)             (None, 256)               2560      
                                                                 
 batch_normalization_3 (Batc  (None, 256)              1024      
 hNormalization)                                                 
                                                                 
 dropout_3 (Dropout)         (None, 256)               0         
                                                                 
 dense_5 (Dense)             (None, 256)               65792     
                                                                 
 batch_normalization_4 (Batc  (None, 256)              1024      
 hNormalization)                                                 
                                                                 
 dropout_4 (Dropout)         (None, 256)               0         
                                                                 
 dense_6 (Dense)             (None, 512)               131584    
                                                                 
 batch_normalization_5 (Batc  (None, 512)              2048      
 hNormalization)                                                 
                                                                 
 dropout_5 (Dropout)         (None, 512)               0         
                                                                 
 dense_7 (Dense)             (None, 6)                 3078      
                                                                 
=================================================================
Total params: 207,110
Trainable params: 205,062
Non-trainable params: 2,048
_________________________________________________________________
Deep Dense model Accuracy is : 55.81 
The accuracy for ADABoost model is: %37.2093023255814
************************************************************************************************************************************
…
************************************************************************************************************************************
***************************************************2022-05-08 05:22:32.570599*******************************************************
Data-sets: wine.csv
Data-sets size: 177,13
Number of EPOC: 400
********************Model Summary******************
Model: "sequential"
_________________________________________________________________
 Layer (type)                Output Shape              Param #   
=================================================================
 dense (Dense)               (None, 256)               3584      
                                                                 
 batch_normalization (BatchN  (None, 256)              1024      
 ormalization)                                                   
                                                                 
 dropout (Dropout)           (None, 256)               0         
                                                                 
 dense_1 (Dense)             (None, 256)               65792     
                                                                 
 batch_normalization_1 (Batc  (None, 256)              1024      
 hNormalization)                                                 
                                                                 
 dropout_1 (Dropout)         (None, 256)               0         
                                                                 
 dense_2 (Dense)             (None, 512)               131584    
                                                                 
 batch_normalization_2 (Batc  (None, 512)              2048      
 hNormalization)                                                 
                                                                 
 dropout_2 (Dropout)         (None, 512)               0         
                                                                 
 dense_3 (Dense)             (None, 4)                 2052      
                                                                 
=================================================================
Total params: 207,108
Trainable params: 205,060
Non-trainable params: 2,048
_________________________________________________________________
Deep Dense model Accuracy is : 97.22 
The accuracy for ADABoost model is: %94.44444444444444
number of Augmented data:391
********************Model Summary******************
Model: "sequential_1"
_________________________________________________________________
 Layer (type)                Output Shape              Param #   
=================================================================
 dense_4 (Dense)             (None, 256)               3584      
                                                                 
 batch_normalization_3 (Batc  (None, 256)              1024      
 hNormalization)                                                 
                                                                 
 dropout_3 (Dropout)         (None, 256)               0         
                                                                 
 dense_5 (Dense)             (None, 256)               65792     
                                                                 
 batch_normalization_4 (Batc  (None, 256)              1024      
 hNormalization)                                                 
                                                                 
 dropout_4 (Dropout)         (None, 256)               0         
                                                                 
 dense_6 (Dense)             (None, 512)               131584    
                                                                 
 batch_normalization_5 (Batc  (None, 512)              2048      
 hNormalization)                                                 
                                                                 
 dropout_5 (Dropout)         (None, 512)               0         
                                                                 
 dense_7 (Dense)             (None, 4)                 2052      
                                                                 
=================================================================
Total params: 207,108
Trainable params: 205,060
Non-trainable params: 2,048
_________________________________________________________________
Deep Dense model Accuracy is : 88.89 
The accuracy for ADABoost model is: %91.66666666666666
************************************************************************************************************************************
…
************************************************************************************************************************************
***************************************************2022-05-08 06:03:42.447600*******************************************************
Data-sets: Wheat.csv
Data-sets size: 210,7
Number of EPOC: 10
********************Model Summary******************
Model: "sequential"
_________________________________________________________________
 Layer (type)                Output Shape              Param #   
=================================================================
 dense (Dense)               (None, 256)               2048      
                                                                 
 batch_normalization (BatchN  (None, 256)              1024      
 ormalization)                                                   
                                                                 
 dropout (Dropout)           (None, 256)               0         
                                                                 
 dense_1 (Dense)             (None, 256)               65792     
                                                                 
 batch_normalization_1 (Batc  (None, 256)              1024      
 hNormalization)                                                 
                                                                 
 dropout_1 (Dropout)         (None, 256)               0         
                                                                 
 dense_2 (Dense)             (None, 512)               131584    
                                                                 
 batch_normalization_2 (Batc  (None, 512)              2048      
 hNormalization)                                                 
                                                                 
 dropout_2 (Dropout)         (None, 512)               0         
                                                                 
 dense_3 (Dense)             (None, 4)                 2052      
                                                                 
=================================================================
Total params: 205,572
Trainable params: 203,524
Non-trainable params: 2,048
_________________________________________________________________
Deep Dense model Accuracy is : 45.24 
The accuracy for ADABoost model is: %59.523809523809526
number of Augmented data:398
********************Model Summary******************
Model: "sequential_1"
_________________________________________________________________
 Layer (type)                Output Shape              Param #   
=================================================================
 dense_4 (Dense)             (None, 256)               2048      
                                                                 
 batch_normalization_3 (Batc  (None, 256)              1024      
 hNormalization)                                                 
                                                                 
 dropout_3 (Dropout)         (None, 256)               0         
                                                                 
 dense_5 (Dense)             (None, 256)               65792     
                                                                 
 batch_normalization_4 (Batc  (None, 256)              1024      
 hNormalization)                                                 
                                                                 
 dropout_4 (Dropout)         (None, 256)               0         
                                                                 
 dense_6 (Dense)             (None, 512)               131584    
                                                                 
 batch_normalization_5 (Batc  (None, 512)              2048      
 hNormalization)                                                 
                                                                 
 dropout_5 (Dropout)         (None, 512)               0         
                                                                 
 dense_7 (Dense)             (None, 4)                 2052      
                                                                 
=================================================================
Total params: 205,572
Trainable params: 203,524
Non-trainable params: 2,048
_________________________________________________________________
Deep Dense model Accuracy is : 35.71 
The accuracy for ADABoost model is: %59.523809523809526
************************************************************************************************************************************
…
************************************************************************************************************************************
***************************************************2022-05-08 06:25:30.437598*******************************************************
Data-sets: Acute.csv
Data-sets size: 120,7
Number of EPOC: 400
********************Model Summary******************
Model: "sequential"
_________________________________________________________________
 Layer (type)                Output Shape              Param #   
=================================================================
 dense (Dense)               (None, 256)               2048      
                                                                 
 batch_normalization (BatchN  (None, 256)              1024      
 ormalization)                                                   
                                                                 
 dropout (Dropout)           (None, 256)               0         
                                                                 
 dense_1 (Dense)             (None, 256)               65792     
                                                                 
 batch_normalization_1 (Batc  (None, 256)              1024      
 hNormalization)                                                 
                                                                 
 dropout_1 (Dropout)         (None, 256)               0         
                                                                 
 dense_2 (Dense)             (None, 512)               131584    
                                                                 
 batch_normalization_2 (Batc  (None, 512)              2048      
 hNormalization)                                                 
                                                                 
 dropout_2 (Dropout)         (None, 512)               0         
                                                                 
 dense_3 (Dense)             (None, 2)                 1026      
                                                                 
=================================================================
Total params: 204,546
Trainable params: 202,498
Non-trainable params: 2,048
_________________________________________________________________
Deep Dense model Accuracy is : 100.00 
The accuracy for ADABoost model is: %100.0
***************************************************2022-05-08 06:27:16.300599*******************************************************
…
***************************************************2022-05-08 13:25:22.330201*******************************************************
***************************************************2022-05-08 13:27:14.768201*******************************************************
Data-sets: iris
Data-sets size: 150,4
Number of EPOC: 50
********************Model Summary******************
Model: "sequential"
_________________________________________________________________
 Layer (type)                Output Shape              Param #   
=================================================================
 dense (Dense)               (None, 256)               1280      
                                                                 
 batch_normalization (BatchN  (None, 256)              1024      
 ormalization)                                                   
                                                                 
 dropout (Dropout)           (None, 256)               0         
                                                                 
 dense_1 (Dense)             (None, 256)               65792     
                                                                 
 batch_normalization_1 (Batc  (None, 256)              1024      
 hNormalization)                                                 
                                                                 
 dropout_1 (Dropout)         (None, 256)               0         
                                                                 
 dense_2 (Dense)             (None, 512)               131584    
                                                                 
 batch_normalization_2 (Batc  (None, 512)              2048      
 hNormalization)                                                 
                                                                 
 dropout_2 (Dropout)         (None, 512)               0         
                                                                 
 dense_3 (Dense)             (None, 3)                 1539      
                                                                 
=================================================================
Total params: 204,291
Trainable params: 202,243
Non-trainable params: 2,048
_________________________________________________________________
Deep Dense model Accuracy is : 30.00 
The accuracy for ADABoost model is: %100.0
number of Augmented data:272
********************Model Summary******************
Model: "sequential_1"
_________________________________________________________________
 Layer (type)                Output Shape              Param #   
=================================================================
 dense_4 (Dense)             (None, 256)               1280      
                                                                 
 batch_normalization_3 (Batc  (None, 256)              1024      
 hNormalization)                                                 
                                                                 
 dropout_3 (Dropout)         (None, 256)               0         
                                                                 
 dense_5 (Dense)             (None, 256)               65792     
                                                                 
 batch_normalization_4 (Batc  (None, 256)              1024      
 hNormalization)                                                 
                                                                 
 dropout_4 (Dropout)         (None, 256)               0         
                                                                 
 dense_6 (Dense)             (None, 512)               131584    
                                                                 
 batch_normalization_5 (Batc  (None, 512)              2048      
 hNormalization)                                                 
                                                                 
 dropout_5 (Dropout)         (None, 512)               0         
                                                                 
 dense_7 (Dense)             (None, 3)                 1539      
                                                                 
=================================================================
Total params: 204,291
Trainable params: 202,243
Non-trainable params: 2,048
_________________________________________________________________
Deep Dense model Accuracy is : 93.33 
The accuracy for ADABoost model is: %96.66666666666667
************************************************************************************************************************************
…
************************************************************************************************************************************
***************************************************2022-05-09 10:44:45.753206*******************************************************
Data-sets: wdbc_csv.csv
Data-sets size: 569,30
Number of EPOC: 10
********************Model Summary******************
Model: "sequential"
_________________________________________________________________
 Layer (type)                Output Shape              Param #   
=================================================================
 dense (Dense)               (None, 256)               7936      
                                                                 
 batch_normalization (BatchN  (None, 256)              1024      
 ormalization)                                                   
                                                                 
 dropout (Dropout)           (None, 256)               0         
                                                                 
 dense_1 (Dense)             (None, 256)               65792     
                                                                 
 batch_normalization_1 (Batc  (None, 256)              1024      
 hNormalization)                                                 
                                                                 
 dropout_1 (Dropout)         (None, 256)               0         
                                                                 
 dense_2 (Dense)             (None, 512)               131584    
                                                                 
 batch_normalization_2 (Batc  (None, 512)              2048      
 hNormalization)                                                 
                                                                 
 dropout_2 (Dropout)         (None, 512)               0         
                                                                 
 dense_3 (Dense)             (None, 2)                 1026      
                                                                 
=================================================================
Total params: 210,434
Trainable params: 208,386
Non-trainable params: 2,048
_________________________________________________________________
Deep Dense model Accuracy is : 92.98 
The accuracy for ADABoost model is: %97.36842105263158
***************************************************2022-05-09 10:49:31.873206*******************************************************
Data-sets: wdbc_csv.csv
Data-sets size: 569,30
Number of EPOC: 50
********************Model Summary******************
Model: "sequential"
_________________________________________________________________
 Layer (type)                Output Shape              Param #   
=================================================================
 dense (Dense)               (None, 256)               7936      
                                                                 
 batch_normalization (BatchN  (None, 256)              1024      
 ormalization)                                                   
                                                                 
 dropout (Dropout)           (None, 256)               0         
                                                                 
 dense_1 (Dense)             (None, 256)               65792     
                                                                 
 batch_normalization_1 (Batc  (None, 256)              1024      
 hNormalization)                                                 
                                                                 
 dropout_1 (Dropout)         (None, 256)               0         
                                                                 
 dense_2 (Dense)             (None, 512)               131584    
                                                                 
 batch_normalization_2 (Batc  (None, 512)              2048      
 hNormalization)                                                 
                                                                 
 dropout_2 (Dropout)         (None, 512)               0         
                                                                 
 dense_3 (Dense)             (None, 2)                 1026      
                                                                 
=================================================================
Total params: 210,434
Trainable params: 208,386
Non-trainable params: 2,048
_________________________________________________________________
Deep Dense model Accuracy is : 97.37 
The accuracy for ADABoost model is: %97.36842105263158
***************************************************2022-05-09 10:56:22.574204*******************************************************
…
***************************************************2022-05-13 09:51:33.216183*******************************************************
Data-sets: 1.csv
Data-sets size: 2866,27
Number of EPOC: 50
***************************************************2022-05-13 09:52:35.859188*******************************************************
Data-sets: 2.csv
Data-sets size: 2771,27
Number of EPOC: 50
********************Model Summary******************
Model: "sequential"
_________________________________________________________________
 Layer (type)                Output Shape              Param #   
=================================================================
 dense (Dense)               (None, 256)               7168      
                                                                 
 batch_normalization (BatchN  (None, 256)              1024      
 ormalization)                                                   
                                                                 
 dropout (Dropout)           (None, 256)               0         
                                                                 
 dense_1 (Dense)             (None, 256)               65792     
                                                                 
 batch_normalization_1 (Batc  (None, 256)              1024      
 hNormalization)                                                 
                                                                 
 dropout_1 (Dropout)         (None, 256)               0         
                                                                 
 dense_2 (Dense)             (None, 512)               131584    
                                                                 
 batch_normalization_2 (Batc  (None, 512)              2048      
 hNormalization)                                                 
                                                                 
 dropout_2 (Dropout)         (None, 512)               0         
                                                                 
 dense_3 (Dense)             (None, 1)                 513       
                                                                 
=================================================================
Total params: 209,153
Trainable params: 207,105
Non-trainable params: 2,048
_________________________________________________________________
***************************************************2022-05-13 09:55:11.040184*******************************************************
…
***************************************************2022-10-21 23:13:59.464943*******************************************************
Data-sets: iris
Data-sets size: 150,4
Number of EPOC: 50
***************************************************2022-10-21 23:15:33.284833*******************************************************
Data-sets: pima-indians-diabetes.data.csv
Data-sets size: 767,8
Number of EPOC: 50
********************Model Summary******************
Model: "sequential"
_________________________________________________________________
 Layer (type)                Output Shape              Param #   
=================================================================
 dense (Dense)               (None, 256)               2304      
                                                                 
 batch_normalization (BatchN  (None, 256)              1024      
 ormalization)                                                   
                                                                 
 dropout (Dropout)           (None, 256)               0         
                                                                 
 dense_1 (Dense)             (None, 256)               65792     
                                                                 
 batch_normalization_1 (Batc  (None, 256)              1024      
 hNormalization)                                                 
                                                                 
 dropout_1 (Dropout)         (None, 256)               0         
                                                                 
 dense_2 (Dense)             (None, 512)               131584    
                                                                 
 batch_normalization_2 (Batc  (None, 512)              2048      
 hNormalization)                                                 
                                                                 
 dropout_2 (Dropout)         (None, 512)               0         
                                                                 
 dense_3 (Dense)             (None, 2)                 1026      
                                                                 
=================================================================
Total params: 204,802
Trainable params: 202,754
Non-trainable params: 2,048
_________________________________________________________________
Deep Dense model Accuracy is : 78.57 
The accuracy for ADABoost model is: %77.27272727272727
number of Augmented data:1696
********************Model Summary******************
Model: "sequential_1"
_________________________________________________________________
 Layer (type)                Output Shape              Param #   
=================================================================
 dense_4 (Dense)             (None, 256)               2304      
                                                                 
 batch_normalization_3 (Batc  (None, 256)              1024      
 hNormalization)                                                 
                                                                 
 dropout_3 (Dropout)         (None, 256)               0         
                                                                 
 dense_5 (Dense)             (None, 256)               65792     
                                                                 
 batch_normalization_4 (Batc  (None, 256)              1024      
 hNormalization)                                                 
                                                                 
 dropout_4 (Dropout)         (None, 256)               0         
                                                                 
 dense_6 (Dense)             (None, 512)               131584    
                                                                 
 batch_normalization_5 (Batc  (None, 512)              2048      
 hNormalization)                                                 
                                                                 
 dropout_5 (Dropout)         (None, 512)               0         
                                                                 
 dense_7 (Dense)             (None, 2)                 1026      
                                                                 
=================================================================
Total params: 204,802
Trainable params: 202,754
Non-trainable params: 2,048
_________________________________________________________________
Deep Dense model Accuracy is : 80.52 
The accuracy for ADABoost model is: %75.32467532467533
************************************************************************************************************************************
…
